Classification/best_model_weights.pt (torch, 32346 bytes, 2 tensors)

weight f4 [10, 768]
0	0x3d8791ee	0.06619631
1	0xbccc3fd8	-0.024932787
2	0x3cc85376	0.02445386
3	0xbd817338	-0.06320804
4	0xbc07bdb2	-0.008284973
5	0x3d258b9c	0.040416345
6	0x3dca0923	0.09865024
7	0xbd21e290	-0.039522707
8	0xbca7e172	-0.020493243
9	0xbdf18398	-0.11792678
10	0xbdc01ae9	-0.09380133
11	0xbd4d1b1f	-0.050074693
12	0x3d9d9f90	0.0769645
13	0x3d7f35a3	0.06230701
14	0x3d4f0f1d	0.050551523
15	0xbb18ce20	-0.002331622
16	0x3dc846da	0.09779139
17	0xbe171df4	-0.1475752
18	0xbd37fe4b	-0.044920247
19	0xbd8ab618	-0.06773013
20	0x3ccb2816	0.024799388
21	0xbd2ecfff	-0.04267883
22	0x3dd5dcdb	0.104425155
23	0x3e1c489a	0.1526207
24	0x3d26b00e	0.040695243
25	0x3d88c5c3	0.06678345
26	0x3d9e2057	0.07721012
27	0xbca0dd4f	-0.019636778
28	0x3cf53667	0.029933168
29	0xbd44b0f3	-0.048020314
30	0xbd89cc40	-0.06728411
31	0xbd4c118a	-0.049821414
32	0xbd3bfee4	-0.04589738
33	0x3d4d92f1	0.050188962
34	0x3e09fe43	0.134759
35	0x3dd0d245	0.10196356
36	0xbe31473e	-0.17312333
37	0x3b2aa941	0.0026040825
38	0xbd42e453	-0.04758103
39	0x3d193cad	0.03741138
40	0x3d212a6c	0.039347097
41	0x3cf62b95	0.030050078
42	0x3d09a06c	0.033600256
43	0x3cd215d2	0.02564517
44	0x3d42108f	0.047379073
45	0xbddd991a	-0.108202174
46	0x3da3392e	0.079698905
47	0xbd977607	-0.07395559
48	0x3d1659c7	0.036706712
49	0xbe4c9756	-0.19979605
50	0x3db77471	0.08957756
51	0x3d8121c3	0.06305268
52	0x3cdb0714	0.026736774
53	0xbe826760	-0.25469494
54	0x3c4a273f	0.012338459
55	0xbd18059c	-0.037114725
56	0x3dbb5ce0	0.09148574
57	0x3d65bc65	0.05608787
58	0xbdfce217	-0.12347811
59	0x3cc51b3f	0.024060844
60	0xbe56e37b	-0.20985214
61	0x3dd3a2f0	0.10333812
62	0x3dd73976	0.10509007
63	0x3d43d7e1	0.0478133
64	0xbd9ba922	-0.07600619
65	0xbdbee3c7	-0.09320789
66	0x3d29d945	0.04146697
67	0xbd78eb7b	-0.060771447
68	0x3dc4a0e6	0.096010014
69	0xbaaa2c00	-0.0012983084
70	0x3d14f405	0.036365528
71	0x3cac8a04	0.021061905
72	0xbc231151	-0.009952859
73	0xbdda6d79	-0.106654115
74	0x3d2c258d	0.042028
75	0x3d12d13d	0.035844076
76	0xbc95441e	-0.018220957
77	0x3d1ecaff	0.03876781
78	0xbd9c45a5	-0.07630471
79	0x3cb73751	0.022365244
80	0xbdcc52e9	-0.09976751
81	0xbdd27637	-0.10276454
82	0x3d2b4fbb	0.041824084
83	0xbd8cef8d	-0.06881628
84	0xbd49ee51	-0.04929954
85	0xbcdd858a	-0.027041215
86	0x3ca655b8	0.020304546
87	0x3de7ed30	0.11324537
88	0xbd7b7a65	-0.06139602
89	0x3db5b0aa	0.088715866
90	0x3dc03511	0.093851216
91	0xbd3b71bd	-0.045762766
92	0xbb9cbde1	-0.0047833775
93	0xbd9ae322	-0.075628534
94	0x3ce45fdc	0.02787774
95	0x3d217829	0.039421234
96	0x3d3bcbaa	0.045848526
97	0xbd83f91b	-0.064439975
98	0x3d1be405	0.038059253
99	0xbd43a289	-0.047762427
100	0x3d1d7cb9	0.038449023
101	0x3e552181	0.20813562
102	0xbc80ca64	-0.015721507
103	0xbe186154	-0.14880878
104	0xbe160d7b	-0.1465358
105	0x3d3c5b37	0.045985427
106	0xbd26cac1	-0.040720705
107	0x3da30178	0.079592645
108	0x3d2bd726	0.04195323
109	0xbccdd845	-0.02512754
110	0x3c0ef16a	0.00872455
111	0xbca7aa7a	-0.020467032
112	0x3c9aad87	0.018881572
113	0xbdb04ef3	-0.08608808
114	0xbdce1316	-0.10062234
115	0xbd709c43	-0.058742773
116	0xbd97c74c	-0.0741106
117	0x3d351cef	0.044217046
118	0xbc91c28a	-0.017792959
119	0x3c6abea9	0.0143276835
120	0xbdbe1114	-0.09280601
121	0x3d5e94da	0.054341175
122	0x3da4c4cb	0.08045348
123	0xbd83c695	-0.06434361
124	0xbe06cf5c	-0.13165039
125	0x3cc480d9	0.02398722
126	0xbc2fb5e7	-0.010724521
127	0xbd9750e0	-0.073884726
128	0x3db5b05c	0.088715285
129	0x3e382fb5	0.17986949
130	0x3dc9dded	0.09856782
131	0xbd781170	-0.060563505
132	0x3d95a5d3	0.07307019
133	0xbbd72b09	-0.0065664095
134	0xbdafb878	-0.085801065
135	0xbd9d884e	-0.07692014
136	0xbe18fe78	-0.14940822
137	0xbddfa04a	-0.109192446
138	0xbc3bfea4	-0.011474285
139	0x3c4a3aa9	0.012343087
140	0xbd5fb81b	-0.054618936
141	0xbe0c1676	-0.13680443
142	0x3bb48a35	0.0055096396
143	0xbd0840a0	-0.033264756
144	0xb9a751c0	-0.0003191363
145	0xbcb6bb9a	-0.022306252
146	0x3d89907e	0.06717013
147	0x3d8181a2	0.063235536
148	0x3d8dd474	0.06925288
149	0xbd6186e7	-0.055060294
150	0x3cdd33b6	0.027002197
151	0x3d8b07d6	0.06788604
152	0x3dd7d12b	0.105379425
153	0x3a3c0025	0.00071716524
154	0x3d84b118	0.064790905
155	0x3d1071b6	0.035264693
156	0xbabc14ec	-0.0014349497
157	0xbd984844	-0.074356586
158	0xbd659c49	-0.05605725
159	0x3c81b5f3	0.01583383
160	0xbdbfb344	-0.09360364
161	0xbdd652a3	-0.104649805
162	0x3c6bbc42	0.014388146
163	0x3d898f92	0.06716837
164	0x3ddacffa	0.106842
165	0xbdbfbace	-0.09361802
166	0x3d3b9b3e	0.045802347
167	0xbe51bad6	-0.20481429
168	0xbdeb2e1b	-0.11483403
169	0xbce394c7	-0.027780904
170	0xbb5b1e85	-0.003343494
171	0xbd2ae34f	-0.041720685
172	0x3e368ffd	0.17828365
173	0x3d4acbc7	0.049510743
174	0xbe0261a5	-0.12732561
175	0xbce3a664	-0.027789302
176	0x3da9701a	0.08273335
177	0xbab7a736	-0.0014011625
178	0xbd15e62c	-0.036596462
179	0xbd0a0de4	-0.033704653
180	0xbd1ac446	-0.037784837
181	0x3cfd70fd	0.030937666
182	0xbd6217f2	-0.055198617
183	0x3c12954b	0.008946727
184	0xbb4785b1	-0.0030444677
185	0x3d75ebf2	0.060039468
186	0x3c2b8f1f	0.010471134
187	0x3b29d44c	0.0025913892
188	0xbd46e581	-0.048558716
189	0xbdac70fb	-0.08419987
190	0x3c9b9798	0.018993184
191	0x3c244b84	0.01002777
192	0xbc2e2ce8	-0.010630824
193	0x3e0fb09b	0.14032213
194	0xbdebcc44	-0.1151357
195	0x3d993c3e	0.074821934
196	0x3c60639a	0.013695622
197	0x3d85651c	0.06513426
198	0x3b586f10	0.0033025183
199	0xbce29b32	-0.027661894
200	0xbb238ff7	-0.0024957636
201	0xbd83fdf9	-0.06444926
202	0xbc7b2aa8	-0.015329994
203	0xbdbb4b5e	-0.091452345
204	0x3dff79d8	0.12474412
205	0xbc67dd1f	-0.0141518405
206	0xbdfeaf4f	-0.12435781
207	0xbcecc278	-0.028901324
208	0xbd11712f	-0.03550833
209	0x3e10274a	0.14077488
210	0x3e17a9b3	0.14810829
211	0xbbdc6ca9	-0.0067268205
212	0xbd2e87c9	-0.042609964
213	0x3dab595a	0.08366652
214	0xbb30927c	-0.002694278
215	0xbda65199	-0.08121032
216	0x3e1f9dc2	0.15587524
217	0x3bcfb76b	0.006339004
218	0xbd5f7765	-0.054557223
219	0xbc9daed3	-0.019248402
220	0xbd000e78	-0.0312638
221	0x3df6387e	0.12022494
222	0x3c5207df	0.012819259
223	0x3dd56caa	0.10421117
224	0xbd3fb2d5	-0.046801407
225	0xbc882cba	-0.01662289
226	0x3d45081f	0.048103448
227	0x3e2be501	0.16786577
228	0x3d01cbb0	0.031688392
229	0xbde62256	-0.11237018
230	0x3e432bd4	0.19059688
231	0x3e20278d	0.15640087
232	0xbd3e8880	-0.046516895
233	0x3d390c4c	0.045177743
234	0xbd82d2d4	-0.063878685
235	0xbc55bacb	-0.013045023
236	0xbcdb6d9c	-0.026785664
237	0xbcef86ef	-0.029239146
238	0x3d268ce6	0.040661715
239	0x3e12e975	0.1434687
240	0xbd9f280a	-0.07771309
241	0xbc8bc070	-0.017059535
242	0xbd70928c	-0.058733508
243	0x3d543dfa	0.051816918
244	0xbdf93749	-0.12168748
245	0xbc1b0364	-0.009461258
246	0xbd8af5b5	-0.06785146
247	0x3e557fe3	0.20849566
248	0x3d2a4e36	0.041578494
249	0x3dbbb184	0.09164718
250	0x3c820612	0.015872035
251	0x3dc675ad	0.096904136
252	0x3cc3dad7	0.023908062
253	0x3d5fe9b6	0.054666243
254	0x3cab8dac	0.020941578
255	0xbd811170	-0.06302154

bias f4 [10]
0	0x3d166ecd	0.03672676
1	0xbd2892c0	-0.041155577
2	0x3d4c001b	0.049804788
3	0x3c402d87	0.011729605
4	0x3d299d7c	0.041409954
5	0xbcdfb77b	-0.02730917
6	0xbc4ac6aa	-0.012376467
7	0xbc1c1e3d	-0.009528694
8	0xbc0819fe	-0.008306978
9	0x3d64a7a9	0.055823956
